…
/master/File1.py)\r\n4. Execute [File2.py](https://github.com/itsDV7/TCS-iON-Remote-Internship/blob/master/File2.py)\r\n5. Use your webcam to test the digits.\r\n## Results\r\nAfter executing [File1.py](https://github.com/itsDV7/TCS-iON-Remote-Internship/blob/master/File1.py), the result of your model can be seen as follows:\r\n```\r\nModel: \"sequential_1\"\r\n_________________________________________________________________\r\nLayer (type)                 Output Shape              Param #   \r\n=================================================================\r\nconv2d_1 (Conv2D)            (None, 28, 28, 60)        1560      \r\n_________________________________________________________________\r\nconv2d_2 (Conv2D)            (None, 24, 24, 60)        90060     \r\n_________________________________________________________________\r\nmax_pooling2d_1 (MaxPooling2 (None, 12, 12, 60)        0         \r\n_________________________________________________________________\r\nconv2d_3 (Conv2D)            (None, 10, 10, 30)        16230     \r\n_________________________________________________________________\r\nconv2d_4 (Conv2D)            (None, 8, 8, 30)          8130      \r\n_________________________________________________________________\r\nmax_pooling2d_2 (MaxPooling2 (None, 4, 4, 30)          0         \r\n_________________________________________________________________\r\ndropout_1 (Dropout)          (None, 4, 4, 30)          0         \r\n_________________________________________________________________\r\nflatten_1 (Flatten)          (None, 480)               0         \r\n_________________________________________________________________\r\ndense_1 (Dense)              (None, 500)               240500    \r\n_________________________________________________________________\r\ndropout_2 (Dropout)          (None, 500)               0         \r\n_________________________________________________________________\r\ndense_2 (Dense)              (None, 10)                5010      \r\n=================================================================\r\nTotal params: 361,490\r\nTrainable params: 361,490\r\nNon-trainable params: 0\r\n```\r\nThe accuracy of the trained model can be checked from console:\r\n```\r\nTest Score =  0.003487161887470976\r\nTest Accuracy =  0.999015748500824\r\n```\r\nFinally, [File2.py](https://github.com/itsDV7/TCS-iON-Remote-Internship/blob/
…
